models/model_linear_regression.tflite (tflite, 10948 bytes, 7 tensors)

staright_line_model/dense/BiasAdd/ReadVariableOp/resource f4 [32]
00000000: 2a47 97bd 129a 9fbe 3476 efbc a555 6abd
00000010: 0730 d53c a235 e1bd 32f0 38be 9dc2 36be
00000020: f7c8 33be 45d3 b23d b577 fd3c 5a3a b23b
00000030: 9387 89bd 0073 1239 f67f 7fbd ccf7 1fbd
00000040: d593 fa3d 463b 00bd 641d e8bd 4c1e 0c3d
00000050: 0913 f53b aae7 85be 3c3b 00bd a096 53bd
00000060: 4dcb 5cbe 76ec 8fbe 1602 bbbe 72f9 53bd
00000070: fa02 143e 920f 05be ea36 c6bd bc29 eebd
-0.0738662 -0.31172234 -0.029231168 -0.057210583 0.026023878 -0.10996558 -0.18060377 -0.17847677
-0.17557131 0.08731703 0.03094087 0.005439085 -0.06715312 0.00013966486 -0.062377892 -0.039054677
0.12235228 -0.031306528 -0.11333731 0.03420858 0.007479076 -0.26153308 -0.03130649 -0.05165732
-0.21561928 -0.28110093 -0.3652503 -0.05175156 0.1445426 -0.12994221 -0.09678443 -0.11629054

staright_line_model/dense_1/BiasAdd/ReadVariableOp/resource f4 [32]
00000000: e83b 803b 143a 80bd 8005 c2b9 453b 00bd
00000010: c63a 80bd 6f01 e6bc fe55 28bd 303c 9e3b
00000020: 81ef 18be 223a 00bd f910 563e 8dcb 42bd
00000030: e970 d0bd acf3 68bd d8b4 24bc 6a86 1c3e
00000040: 0038 00bd 10ad 843e 8f52 d4bd d7ff 0cbd
00000050: 4087 54be 443b 00bd e66d 163e da9a 37bd
00000060: b895 bebd ba78 bdbb 413b 00bd abad 66be
00000070: 6fa7 dfbc d596 4bbe 3ce5 3bbd 5722 62bd
0.0039133914 -0.062610775 -0.0003700666 -0.031306524 -0.0626121 -0.028076855 -0.041097634 0.0048289523
-0.14935113 -0.03130544 0.20904912 -0.047557402 -0.10177786 -0.05687301 -0.010052882 0.1528565
-0.031303406 0.25913286 -0.10367309 -0.034423675 -0.20754719 -0.03130652 0.1469036 -0.044825412
-0.093059 -0.005782214 -0.03130651 -0.22527187 -0.027301518 -0.19881757 -0.04587291 -0.05520853

staright_line_model/dense_2/BiasAdd/ReadVariableOp/resource f4 [32]
00000000: dfa3 543e 274d d43d 9cd1 d93c 05e7 b33d
00000010: 650d eb3c 0580 de3d e215 a7bd 433b 00bd
00000020: 2bf0 e53d 8f23 fdbd 8815 0d3e d48e 0c3e
00000030: 66df 62bd 273b 00bd 7c26 00be fcb4 49bd
00000040: 27ed 31bd b2ec 7e3e 2d20 383e 1f3b 00bd
00000050: 46a8 dc3c 29c8 8b3c a144 513d 163a 80bd
00000060: 4e24 413e 2642 093d 1311 45be 413b 00bd
00000070: 801c 273e 0000 0000 8070 9abd 0000 0000
0.20765637 0.10366278 0.026589207 0.08784298 0.02869291 0.108642615 -0.08158471 -0.031306516
0.11227449 -0.12360298 0.13777745 0.1372636 -0.05538883 -0.031306412 -0.1251468 -0.049244866
-0.043439057 0.2489498 0.17981024 -0.031306382 0.026935708 0.017063217 0.05109084 -0.06261079
0.18861505 0.03351035 -0.19244795 -0.03130651 0.16319466 0.0 -0.07540989 0.0

staright_line_model/dense/MatMul f4 [32, 1]
00000000: 92eb 7cbd 22e2 703d 8312 96be 1781 82be
00000010: 6185 05bf fea5 dbbd 2cd2 aa3e 7831 363d
00000020: 96df d03e ee1c 0ebf 25b2 2dbe c5c2 6cbe
00000030: b3d8 88bd c5af c9be 1c6e 29bc f71b 0cbe
00000040: aa20 83be 2428 59bc 7ed1 e3bd 36fe aebe
00000050: 7e0c e3be a41b 0e3e a05d b8bb 29cc 073c
00000060: 1937 943e 5408 8f3d 9755 2b3e aea0 44bd
00000070: 6a64 febe b938 04be d8b1 c5bd 8b02 fd3e
-0.061748095 0.058809407 -0.29310998 -0.25489113 -0.52156645 -0.1072502 0.33363473 0.04448077
0.40795583 -0.55512893 -0.16962488 -0.23121174 -0.06681957 -0.39391914 -0.0103411935 -0.13682543
-0.25610858 -0.013254199 -0.11123942 -0.34178323 -0.44345468 0.13877732 -0.0056263953 0.008288422
0.28948286 0.0698401 0.16731869 -0.0480048 -0.49685985 -0.12912263 -0.09653062 0.49416003

staright_line_model/dense_1/MatMul f4 [32, 32]
00000000: 084f c83d 6277 8b3e 7fcd 28be d829 d9be
00000010: 586d 50bd 170a 89be a866 f23e f45b 15be
00000020: 4354 b23e 651c abbe a63a e9bd a2fa 623e
00000030: 4dec 6cbe edba 7cbe f40c 20be d4b1 183d
00000040: 2a53 a6bd dafe 1abe 536a 97be 3b84 b6bd
00000050: 6936 233e 7082 1abe 4ea6 7e3e d4a7 01be
00000060: c743 f33e 596c 09be 28a8 d03e be77 78be
00000070: 5e24 113e 4bbe 92be 833b 26be f19c b23e
00000080: 838e 473e 1c89 e0bd 405a 4fbe d669 f1bd
00000090: 388d 47be 8c8c a7be 53c2 823e d78c 86be
000000a0: 0108 41be da38 dd3d 7076 a7bd 34be 73bc
000000b0: 6de8 273e b250 37be 6a7f 82be c429 48be
000000c0: b702 94be b2f8 02be 00d0 f0ba f9a5 453e
000000d0: 33ce 3ebd 8cba 84be 1a36 383e f63b 753e
000000e0: f52a 8bbe 3275 44be 1187 2fbe 2923 113e
000000f0: 0e11 6f3e f478 ff3d a274 813e 127e a33d
00000100: d300 5fbe 707c 4c3d dcbc 55bc 3fe0 8ebe
00000110: 023b 2dbe bdc1 863d 7b80 f63e e986 09be
00000120: 9ff0 6b3e 48fa 96be 1aff 553d 4fba 103e
00000130: 184c 263c e5c5 f33d 948d b63c 1fef c7be
00000140: 88c4 cabe bd8f 7cbe 184a f53d d479 913d
00000150: 27bb 643d 3710 c73e 0027 aabc 3053 003e
00000160: be3a b23e 951c 5a3e 273b 00be d87c de3d
00000170: ecb1 9cbe 020f 63be 7008 93bd 7652 e73e
00000180: 0c02 3e3e bca9 91bd 367a f23d e2b6 c2bd
00000190: 5cb0 7a3e eb04 833e 08d5 fa3d ecfe 4cbe
000001a0: 00e0 c73d 30ea 97be f576 8bbe e369 4b3e
000001b0: d2a6 c93d e918 193d 6669 3b3e d33e 94be
000001c0: 087c 183e 00ed 963c 561c 94be 0ae0 863c
000001d0: 2e18 c93c 40a3 85be 3af7 803e baa5 87be
000001e0: 1e9a 8fbe bb9f 993e fab4 98bd e4a7 7b3e
000001f0: 74d7 c3bd 2406 923d 9865 c53b 0090 e83b
00000200: 2cbc 65be 86b4 3fbe 009e 1fba 9059 55bd
00000210: c264 613e d04e ee3c 9b75 f93d 549c 773e
00000220: 098f 3d3d 30ef 64bd a5eb 8abe 8ec0 513e
00000230: a60b 5ebe 3817 5dbd 102a 343d a0b0 d43c
00000240: c02b 183e 16f4 9e3d b806 15bd 8081 773d
00000250: 2e04 3fbe a538 39be 6b83 0dbe f9eb 24be
00000260: e2f6 e9bd 4519 5abd beb5 3bbe 689f 51be
00000270: 6015 713c 2d94 78be 2c6a 63be 2f82 65bd
00000280: d8b0 1c3d af0c 843d ccfe 113e a936 003e
00000290: 7777 ef3c 299c 43be 0f4f debd 34d4 3b3b
000002a0: 14d1 40be 1849 553e 31de 2fbe 92a2 72be
000002b0: 04b0 76bd d002 45be 58ad 723d 845b 343e
000002c0: a0e8 013e 1814 6fbd 5f71 9c3c 6392 19be
000002d0: 7e45 8bbe c2b7 03be 280a 1dbe eb8e 37be
000002e0: ac3e 69bd c627 5f3d c167 6e3d 5bbd 943e
000002f0: 1c70 ba3c dc68 da3c 7018 1a3c e60e 653e
00000300: de6c 473e a069 bbbc 04d6 11be d4d8 313c
00000310: 9801 9c3d a0ca c4bd fdb1 833e 3a05 44be
00000320: df37 52be e05d 12ba 26cb 4dbe 86e7 be3d
00000330: e2d8 d13d b406 983e b74f 883e fd74 25be
00000340: 2055 57be bba3 7dbd 0d4c 9cbd 7a5b 1f3d
00000350: f687 c2bd 4db6 373d c6b0 f7bd 6ed2 643e
00000360: 4832 043e bdb4 8bbd 0820 04be 2bb5 94be
00000370: 8c4b 61be 0dc2 173e c1d3 883e 7322 d6bd
00000380: 2657 5dbe 052f 8bbd 7055 093d df3c cabc
00000390: 15ed bbbd d06c 7b3e 108c b93d 97eb 8f3e
000003a0: 4f4d 3ebe 4503 24be 9055 b9bd bd0d 4e3d
000003b0: 2521 573d 11dd 5b3e 1466 143c dcab 6dbe
000003c0: b76b c2be 54a5 58be 112a 35be d619 14be
000003d0: 01a7 483e 00ff 91bd 260c 6abe 56b0 db3c
000003e0: 3034 74be 6dc5 a73c 7e2c 20be 2c6c a63e
000003f0: c69a 5b3e 128a 833e 88f4 9a3d c5d0 babc
0.09780699 0.2723952 -0.1648464 -0.42414737 -0.05088553 -0.2676551 0.47343946 -0.14585859
0.34829912 -0.334201 -0.113881394 0.22165921 -0.23137017 -0.24680682 -0.15629941 0.037278965
-0.08121331 -0.1513628 -0.29573306 -0.0891194 0.15938725 -0.1508882 0.24868128 -0.12661678
0.47512648 -0.13420238 0.40753293 -0.24264428 0.14174029 -0.28660807 -0.1623364 0.34885362
0.19487958 -0.109636515 -0.20249271 -0.11787765 -0.19487464 -0.32724416 0.25538883 -0.26279327
-0.1885071 0.10801859 -0.08176887 -0.014876891 0.16397257 -0.17901877 -0.25487834 -0.19547182
-0.2890832 -0.12790182 -0.0018372536 0.19301595 -0.046583366 -0.25923574 0.17989388 0.23948655
-0.2718121 -0.19185331 -0.17141367 0.14173569 0.2334635 0.12474242 0.25284296 0.079830304
-0.21777658 0.04992336 -0.013045516 -0.2790546 -0.16917041 0.065799214 0.48144898 -0.1343037
0.23041008 -0.29487824 0.052245237 0.14133571 0.010149978 0.1190298 0.022284307 -0.39049622
-0.39603066 -0.24664207 0.11977023 0.07103315 0.055842545 0.38879558 -0.02077055 0.12531734
0.34810442 0.21299966 -0.12522565 0.10863656 -0.30604494 -0.22173694 -0.07179344 0.451801
0.18555468 -0.071124524 0.11839716 -0.095075384 0.24481338 0.2558969 0.12247664 -0.2001912
0.097595215 -0.29670858 -0.27239195 0.19864611 0.098462716 0.03737727 0.18301925 -0.2895418
0.14891064 0.018423557 -0.2892787 0.016464252 0.024547663 -0.26101112 0.2518862 -0.26493627
-0.2804727 0.30004677 -0.074563935 0.24575764 -0.09562579 0.071300775 0.006024074 0.0070972443
-0.22435063 -0.18721208 -0.00060889125 -0.052087367 0.22011092 0.029090315 0.121806346 0.24180728
0.046278987 -0.05589217 -0.27132908 0.2048361 -0.21684131 -0.05397722 0.043985426 0.025963128
0.1486044 0.077613994 -0.03638336 0.060426235 -0.18653938 -0.18088014 -0.13819663 -0.16105641
-0.11424042 -0.053246755 -0.18331048 -0.20470965 0.014714569 -0.24275275 -0.2220847 -0.056032356
0.03825459 0.06447732 0.14257354 0.12520851 0.02923177 -0.19102539 -0.10854923 0.0028660418
-0.18829757 0.20828664 -0.17174603 -0.23694828 -0.060226455 -0.19239354 0.059247345 0.17613035
0.12686396 -0.058368772 0.019097028 -0.14997248 -0.27201456 -0.12863067 -0.15335906 -0.17925613
-0.056944534 0.05448129 0.058204416 0.29050717 0.022758536 0.026661329 0.00940524 0.22368965
0.19475123 -0.022877514 -0.14241797 0.0108549185 0.076174915 -0.0960896 0.25721732 -0.19142619
-0.20529126 -0.00055834465 -0.20097026 0.09321503 0.10246445 0.29692614 0.26623318 -0.16157909
-0.21028566 -0.061923724 -0.07631693 0.0389056 -0.09498589 0.04485159 -0.12094264 0.22345898
0.12909806 -0.068215825 -0.12902844 -0.2904447 -0.22001475 0.14820118 0.26724055 -0.104557894
-0.21615276 -0.06796078 0.033528745 -0.024687229 -0.09176079 0.24553227 0.09059918 0.28109428
-0.18584178 -0.16016872 -0.09049523 0.05030607 0.052521843 0.21471049 0.00905754 -0.2321009
-0.37972805 -0.21156818 -0.17691828 -0.1446298 0.19594957 -0.071287155 -0.22856197 0.026817482
-0.23848033 0.020479882 -0.15641972 0.32504404 0.2144576 0.25691277 0.07566172 -0.022804627

staright_line_model/dense_2/MatMul f4 [32, 32]
00000000: c05a 18bc 6e37 75be 382d 8dbe 2e52 1cbd
00000010: b608 903d a378 8a3d ad62 5ebe 8b84 393e
00000020: 9ce9 67be 9f5e 833e 153f e23e a4bc 3b3b
00000030: a046 a43a 647c 46be 1b36 8d3e 9d5f 943d
00000040: 5313 58be d462 25be 0d80 4f3e 40ec 91ba
00000050: 5ce2 033e 6ac7 133d 643e 643e e8d7 833e
00000060: 7e39 313d d154 003e bc81 a73d 11d6 5f3d
00000070: c29c 6dbe 9166 e83d c420 bdbd b579 debd
00000080: 24b5 dc3e 3db4 43bd e236 c43e dae8 38be
00000090: a35b 19be e64b c33d 7c04 083e 5500 d2be
000000a0: f6f0 873d af27 5d3e d386 e5bc e85c 9a3d
000000b0: 80b2 c63d 6057 883e bfa1 ac3d 1f77 f3be
000000c0: 1499 a43d 5eb3 6ebe 2571 d33e 0c98 673e
000000d0: d1d5 3e3d 89a6 08bd c17b c13e 08a1 f53e
000000e0: 8ed7 4e3e 7e20 a3bd 84aa d0bd 7b38 2c3e
000000f0: 3a72 b53c d6ef dfbd e219 423e e856 d2bd
00000100: e508 253d c47f 25bd 7810 443e 1c17 f53d
00000110: dbc8 ad3c 43dc 183e a372 8c3e 5a86 633d
00000120: 7b37 b1bd 356b 943d c6d8 853d b9bb 6c3e
00000130: e519 b73e fa09 033e 82fc b03e af25 a9be
00000140: f436 d1bd da70 5fbe 616b e63d a28e 59be
00000150: 19d8 303e 54dc adbc 5526 743e 57d9 4c3e
00000160: 1df3 f83d f0fd debd bd2f 19be d824 343d
00000170: c84b 53be 9bff 52be 159c 753e 9ca7 043c
00000180: faf9 983e d078 67be 153e cd3e 1cf5 11be
00000190: 8c5e 273d cac0 1c3e 5e56 573d 1bf9 5cbe
000001a0: c2e8 99bd 0d75 253e 4d13 59be f170 343e
000001b0: 1149 c63e 1904 eb3d e09e 8cbc a891 b03d
000001c0: 163d 52be 439a 14be 9738 573e fe65 c93e
000001d0: 38ef 48be 4642 87be 80b0 ddbd 4289 d13c
000001e0: 2620 393d 03a3 06bd f5b7 1f3e a005 92bd
000001f0: a8b0 e03e 0bf3 023d c27d a63c d6e5 42be
00000200: 9a89 9b3e 3488 fb3d a337 2c3e 1624 acbe
00000210: 46c3 b63e eacf 08be 9cf5 6abe c71f 0bbe
00000220: 5130 c5bd de6f a63d 941c 3dbe 19f6 61bd
00000230: ef47 fabd db6a b63e f034 2e3e 043b 8cbe
00000240: acc6 abbe 1f17 633e 2f2b fd3c 8167 7f3e
00000250: 62f3 8f3d 2aa8 1b3e cffe 783d 2c95 1e3e
00000260: 433d 123e 2278 8e3e 2700 833e b4d5 87bd
00000270: 29ac a23e 51b1 6d3e eca5 16be 86d3 93be
00000280: f806 ac3e 89b5 7b3e 11bb d43e 1e9e 043e
00000290: a8ce c4bd f451 843e 412c 0dbd c7f1 803e
000002a0: fe61 e53d ac97 3ebd 2eef ffbd a52b b2bd
000002b0: ba26 a83e 5e7c c83e 7472 f23e 6e55 5dbe
000002c0: dca9 283c a7af 44be ae2d 9ebb 0180 923e
000002d0: e30a 243e a49d 763e 0495 92bd 0641 0f3d
000002e0: c295 2fbe d62f 68be a266 063e 919c 82be
000002f0: def2 b33e 25fb 4dbe 9c40 2d3e 8771 033e
00000300: 7a78 98be 47b4 00be 0807 9d3d 4db5 91be
00000310: 3ce6 63be 6693 2dbe 6695 633e 362c 863d
00000320: 009d 253b 087c 853d c49c 8d3d 8824 603d
00000330: b116 84be 2972 803e 3165 bcbe cecf f13c
00000340: 014c 82be bc69 0dbe fa4e f4bd 5b59 60be
00000350: 2f2b 50be 7815 5cbd 939d 3a3e 2488 abbe
00000360: 7746 ecbd b9a2 893d e847 133e 61a4 b33c
00000370: b697 6c3e 57aa 10be bd0a b1be 53f2 38bd
00000380: 68f3 cf3d 9e28 03be 3c95 a63d f58e 343e
00000390: 6c08 b9bd f437 fd3d 6250 22bd 4607 d23d
000003a0: c65a afbd a032 ea3d 3023 83bc 12e3 cfbd
000003b0: cca8 7ebd 2849 4ebd 4e8f 0cbe 3fc5 5ebe
000003c0: e09d 11bd b562 46be 501d 95bd 8a91 7cbe
000003d0: e145 a8be e6bb 563e 0062 573e 2549 65be
000003e0: 6c5a 4cbe eebc e13d 18d2 273e ea44 14bd
000003f0: c243 81be 88fc aa3d 62e1 803e 7cc6 8bbe
-0.00929898 -0.23946926 -0.27573562 -0.03816431 0.070329115 0.06761291 -0.2171733 0.18116967
-0.22647709 0.25658128 0.44188753 0.0028646374 0.0012533255 -0.19383389 0.27580342 0.07244799
-0.21101122 -0.16150981 0.20263691 -0.001113303 0.12879318 0.036078848 0.22289425 0.2575066
0.04326772 0.12532355 0.08179042 0.05464751 -0.2320433 0.11347688 -0.09234765 -0.108630575
0.4310695 -0.04777931 0.38323122 -0.18057576 -0.14976363 0.09535961 0.1328296 -0.41015878
0.066377565 0.2159717 -0.02801839 0.07537252 0.09702015 0.26629162 0.08429288 -0.4755182
0.0803701 -0.2331061 0.4129726 0.22616595 0.04659063 -0.033361945 0.3778973 0.4797442
0.20199415 -0.07965182 -0.10188773 0.1681842 0.022149194 -0.10934417 0.18955186 -0.10270482
0.040291686 -0.04040505 0.19146907 0.119672984 0.02121394 0.14927773 0.2743121 0.05554805
-0.0865316 0.072470106 0.06535487 0.23118486 0.35761943 0.12796775 0.34567648 -0.33036563
-0.102155596 -0.21820393 0.1125095 -0.21245816 0.17269935 -0.021223225 0.23842748 0.20004784
0.12155745 -0.108882785 -0.14959617 0.04398045 -0.20634377 -0.20605318 0.23985322 0.008096602
0.29878217 -0.2260468 0.40086427 -0.14253658 0.04086165 0.15307918 0.0525726 -0.21579401
-0.07515098 0.16157933 -0.21198769 0.17621209 0.3872762 0.11475391 -0.017165601 0.08621532
-0.20531115 -0.14511971 0.21017681 0.39335626 -0.19622505 -0.2641775 -0.1082468 0.025578145
0.045196675 -0.032870304 0.15597518 -0.07129979 0.43884778 0.031970065 0.020323638 -0.19032988
0.3037842 0.12281838 0.16818099 -0.3362128 0.35695857 -0.13360563 -0.22945255 -0.13586341
-0.09628356 0.08126806 -0.18467933 -0.055166338 -0.122207515 0.356284 0.17012382 -0.27388775
-0.33550012 0.22176789 0.03090438 0.24941827 0.070288435 0.15200868 0.06078988 0.15486592
0.14281182 0.2782603 0.25586054 -0.066325575 0.31771973 0.23212172 -0.14711732 -0.28872317
0.33599067 0.24580969 0.4154897 0.12950942 -0.09609729 0.25843775 -0.034466032 0.2518446
0.11200331 -0.046531364 -0.12496792 -0.08699731 0.32842046 0.39157385 0.47352946 -0.2161462
0.010294404 -0.19207631 -0.004827223 0.28613284 0.16019778 0.24083573 -0.07157329 0.03497412
-0.17146972 -0.22674498 0.13125089 -0.25510076 0.3514623 -0.20115335 0.16919178 0.12836276
-0.29779416 -0.1256877 0.07667357 -0.28458634 -0.22255796 -0.1695076 0.2222496 0.06551401
0.0025270581 0.06517798 0.06914666 0.05472234 -0.25798562 0.25087097 -0.36795953 0.029518034
-0.2544861 -0.13809866 -0.11929126 -0.21909086 -0.20328973 -0.05373141 0.18224172 -0.33502305
-0.115368776 0.0672049 0.14382899 0.021928968 0.23104748 -0.1412748 -0.34578505 -0.045152973
0.10153848 -0.12808463 0.08133933 0.17632659 -0.090348095 0.12364188 -0.03962744 0.102552935
-0.085622355 0.11435437 -0.01600799 -0.10150732 -0.062172696 -0.050362736 -0.13726541 -0.21754931
-0.035550952 -0.19373591 -0.072809815 -0.24664894 -0.32865813 0.20970115 0.21033478 -0.22391184
-0.19956368 0.110223636 0.16388738 -0.036198534 -0.25247008 0.08348948 0.25171953 -0.2729987

staright_line_model/dense_3/MatMul f4 [1, 32]
00000000: 9e1f c4be 87c0 033f b8b3 f93d 024d b33e
00000010: e61a 2c3e a871 cb3e 0a1b e83c d204 b03e
00000020: f1ea 39be 5634 283c f0a1 8bbe 5aed a1be
00000030: bbc5 f73c 937f 603e 28c3 db3d ba3b f0ba
00000040: 607a 12bc 7a8e ffbe 125c 90be 5c01 98be
00000050: c619 153e 0a3c 913e b63c 2e3e c29d f43d
00000060: 163b bbbe d758 12bc 87ff 453c c02f 733e
00000070: 1d68 afbe c040 85bc db5a cbba dceb ca3e
-0.38305372 0.5146565 0.12192482 0.3501969 0.16807136 0.3973515 0.028333206 0.34378678
-0.1815603 0.010266384 -0.27271986 -0.31626397 0.030245652 0.21923666 0.107305825 -0.0018328347
-0.008940309 -0.49913388 -0.28195244 -0.29688537 0.14560613 0.2836612 0.17015347 0.119441524
-0.36568516 -0.008932314 0.012084848 0.23748684 -0.3425912 -0.016266227 -0.0015514748 0.3963307
